…
Total parameters: 597,005
Input shape: (30, 1662)
Output classes: 13
Actions: [np.str_('Idle'), np.str_('Hai'), np.str_('Saya'), np.str_('Encik'), np.str_('Puan'), np.str_('Tolong'), np.str_('Terima Kasih'), np.str_('Nama'), np.str_('Nombor'), np.str_('Tunggu'), np.str_('Mana'), np.str_('Borang'), np.str_('Renew')]

Model: "sequential"
+--------------------------------------------------------------------------+
| Layer (type)                    | Output Shape           |       Param # |
|---------------------------------+------------------------+---------------|
| lstm (LSTM)                     | (None, 30, 64)         |       442,112 |
|---------------------------------+------------------------+---------------|
| dropout (Dropout)               | (None, 30, 64)         |             0 |
|---------------------------------+------------------------+---------------|
| lstm_1 (LSTM)                   | (None, 30, 128)        |        98,816 |
|---------------------------------+------------------------+---------------|
| dropout_1 (Dropout)             | (None, 30, 128)        |             0 |
|---------------------------------+------------------------+---------------|
| lstm_2 (LSTM)                   | (None, 64)             |        49,408 |
|---------------------------------+------------------------+---------------|
| dropout_2 (Dropout)             | (None, 64)             |             0 |
|---------------------------------+------------------------+---------------|
| dense (Dense)                   | (None, 64)             |         4,160 |
|---------------------------------+------------------------+---------------|
| dense_1 (Dense)                 | (None, 32)             |         2,080 |
|---------------------------------+------------------------+---------------|
| dense_2 (Dense)                 | (None, 13)             |           429 |
+--------------------------------------------------------------------------+
 Total params: 597,007 (2.28 MB)
 Trainable params: 597,005 (2.28 MB)
 Non-trainable params: 0 (0.00 B)
 Optimizer params: 2 (12.00 B)
